notebooks/model_part2.pt (torch, 30199 bytes, 5 tensors)

layer1.weight f4 [64, 100]
0	0x3c03b4a4	0.008038674
1	0x3de66645	0.11249975
2	0x3cdd1dd6	0.026991766
3	0x3dafe26b	0.08588108
4	0x3b4f7b00	0.0031659007
5	0x3c77bdb6	0.015120914
6	0xbdb430cd	-0.087983705
7	0x3d9796b9	0.07401795
8	0x3d3297f6	0.043601952
9	0x3c9715f6	0.018443089
10	0x3e1f850b	0.15578096
11	0x3c882691	0.016619952
12	0x3d58d154	0.052934006
13	0xbbadea85	-0.005307498
14	0xbdc096bf	-0.094037525
15	0x3b05d4be	0.0020420994
16	0xbd9cba9c	-0.076527804
17	0xbe169cc7	-0.14708243
18	0xbdb1fe65	-0.086911
19	0x3b9aeeae	0.00472816
20	0xbc208c62	-0.009799095
21	0x3e0be12b	0.13660114
22	0x3ce7fffa	0.028320301
23	0x3df3141d	0.11869071
24	0x3bd80a95	0.0065930584
25	0x3d17bf7b	0.037047844
26	0xbda29bf2	-0.079399005
27	0x3da8c644	0.08240941
28	0xbd289591	-0.041158263
29	0x3d25df25	0.04049601
30	0xbdd1d2ed	-0.10245309
31	0x3e17c1bf	0.14820002
32	0x3c162966	0.009165144
33	0xbd8a962b	-0.067669235
34	0xbd39f74e	-0.045401864
35	0xbd189080	-0.03724718
36	0xbd9a5cc7	-0.07537227
37	0x3df59683	0.119915985
38	0x3dbc9505	0.09208111
39	0xbdefcbf3	-0.11708822
40	0xbcda813c	-0.026672952
41	0xbd425a5e	-0.047449462
42	0xbe3875ab	-0.18013637
43	0x3ad7545c	0.0016428339
44	0x3dd5c100	0.104372025
45	0x3d147e21	0.0362531
46	0xbe0883d5	-0.1333154
47	0x3e1028fb	0.14078133
48	0xbd95b367	-0.07309609
49	0x3de3ebe2	0.111289755
50	0xbca58422	-0.020204607
51	0x3c612da8	0.013743795
52	0x3dc931ad	0.09823928
53	0xbdaf8785	-0.0857077
54	0xbd8cdacf	-0.06877672
55	0x3c58056d	0.013184887
56	0xbd39d895	-0.045372564
57	0xbd8c1a18	-0.068409145
58	0x3df3c128	0.11902076
59	0xbd638a95	-0.055552084
60	0x3d96f18d	0.07370291
61	0xbda38eba	-0.07986207
62	0xbe49b463	-0.19697718
63	0x3da50dd1	0.08059276
64	0xbb1ffbe5	-0.0024411615
65	0x3e0fb522	0.1403394
66	0xbe289fa5	-0.1646715
67	0xbd365571	-0.044515077
68	0x3d686ad1	0.056742493
69	0xbe5123c0	-0.20423794
70	0xbdb8d780	-0.09025478
71	0x3d7a5e6a	0.061125197
72	0xbdab92b8	-0.08377594
73	0x3d151398	0.03639564
74	0xbd8149e9	-0.06312925
75	0x376221d8	1.347853e-05
76	0xbd45f5f8	-0.048330277
77	0x3c9e6b02	0.019338135
78	0xbda7afa7	-0.081878
79	0xbd14c507	-0.036320712
80	0x3e06dcb7	0.13170134
81	0xbe262f58	-0.16228998
82	0x3d1ccc6f	0.0382809
83	0xbc4f8fa7	-0.012668527
84	0xbbf0d130	-0.007349156
85	0x3d0491ea	0.032365717
86	0xbca38040	-0.019958615
87	0x3dc046d4	0.093885094
88	0x3c9db77b	0.01925253
89	0x3dccf547	0.100077204
90	0x3bbe62a5	0.005810099
91	0xbe03803b	-0.12841885
92	0x3de54ae5	0.111959256
93	0x3d815612	0.06315245
94	0x3e059c2b	0.13047855
95	0xbb77c8f3	-0.0037808984
96	0x3c577b54	0.013151962
97	0x3de52b02	0.11189844
98	0x3e2e6833	0.17031936
99	0xbe0e6381	-0.13905145
100	0xbdf90955	-0.12159983
101	0xbe867d97	-0.26267692
102	0x3c32e3e4	0.010918591
103	0x3d2f2608	0.04276088
104	0x3d24a533	0.04019661
105	0xbd826f97	-0.0636894
106	0xbc4f0a00	-0.0126366615
107	0xbd619ce1	-0.055081252
108	0x3da7d1a2	0.08194281
109	0xbb91c8a2	-0.004448966
110	0xbda8dc26	-0.08245115
111	0x3e0db119	0.13837089
112	0xbc81ca3b	-0.015843501
113	0xbd4593e0	-0.048236728
114	0x3dc56638	0.09638637
115	0xbd950bd8	-0.0727765
116	0x3cfee42a	0.031114656
117	0x3d40ed3c	0.047101244
118	0x3dc1927d	0.094517685
119	0x3e1671dc	0.14691871
120	0x3b43bf24	0.0029868567
121	0x3d64a869	0.05582467
122	0x3dcdd545	0.100504436
123	0xb4283400	-1.5665137e-07
124	0xbd125a16	-0.035730444
125	0xbbace6a2	-0.005276517
126	0x3cce45fb	0.025179854
127	0xbdbb1caa	-0.091363266
128	0xbb819eca	-0.0039556967
129	0x3ce300be	0.027710315
130	0x3ba1fbcd	0.004943347
131	0xbd7c2b00	-0.061564445
132	0x3d250345	0.04028632
133	0x3cbd81ee	0.023133244
134	0x3e031f7e	0.12804982
135	0x3e254f98	0.16143644
136	0xbd3cffcc	-0.046142384
137	0xbd9ff3a5	-0.078101434
138	0xbd6727fb	-0.056434613
139	0x3e628a42	0.22123054
140	0x3c9efac0	0.019406676
141	0x3e1d580d	0.1536562
142	0x3c006023	0.007835421
143	0x3c806e35	0.01567755
144	0xbe63a234	-0.22229844
145	0xbd834b65	-0.06410865
146	0x3de0f595	0.10984341
147	0xbd788a23	-0.060678612
148	0xbd9c3f36	-0.07629244
149	0xbe07c584	-0.1325894
150	0xbdb1b3f3	-0.08676901
151	0xbd6771d4	-0.05650504
152	0xbdc5847a	-0.096444085
153	0xbd5c949a	-0.053852655
154	0x3dcc091b	0.09962674
155	0x3df2d818	0.11857623
156	0x3d87b43e	0.06626175
157	0x3c6191b9	0.013767653
158	0xbd8a964c	-0.06766948
159	0x3db270f3	0.087129496
160	0xbb646206	-0.0034848466
161	0x3d3c310d	0.045945216
162	0x3e44daf6	0.19224152
163	0xbe087853	-0.1332715
164	0x3d24394f	0.040093716
165	0xbe4fd794	-0.2029708
166	0x3cb3e017	0.02195744
167	0x3d40bc74	0.047054723
168	0xbdfd7678	-0.12376112
169	0x3e078252	0.13233307
170	0xbd29c685	-0.04144909
171	0x3e3b36dd	0.18282647
172	0xb947c568	-0.00019051658
173	0xbb573642	-0.0032838737
174	0xbd019a35	-0.031641204
175	0x3e439bd4	0.19102412
176	0x3d9869e4	0.07442072
177	0xbdc5a596	-0.09650724
178	0x3e018979	0.12650098
179	0xbc8d19a6	-0.017224144
180	0xbdd7a77d	-0.10529993
181	0xbdc4f2d0	-0.09616625
182	0x3ddc6d81	0.10763074
183	0x3e2cc29b	0.16871111
184	0xbd529227	-0.051408913
185	0xbd089852	-0.03334839
186	0x3c230298	0.009949349
187	0x3e657681	0.22408487
188	0xbc0b724a	-0.008511135
189	0x399088f6	0.00027567864
190	0x3cd5e24f	0.026108889
191	0x3d97833c	0.07398078
192	0xbe16447a	-0.14674559
193	0x3e21510b	0.15753572
194	0x3d641832	0.055687137
195	0x3dbf9e9f	0.093564264
196	0x3dbf1bc4	0.09331468
197	0xbd9744ae	-0.073861465
198	0xbd9a4365	-0.07532386
199	0xbb158f71	-0.0022821093
200	0x3c83be68	0.016082004
201	0x3e731a4c	0.237405
202	0x3dc17a0e	0.09447108
203	0x3d2eaab0	0.04264325
204	0xbb14f340	-0.0022727996
205	0x3e293502	0.16524127
206	0x3d96febc	0.073728055
207	0x3d2efc33	0.042720985
208	0xbc8986c2	-0.01678789
209	0x3e0dc8c4	0.13846117
210	0x3dfd418d	0.123660184
211	0xbe17dfdf	-0.14831494
212	0x3d12bd4b	0.035825055
213	0xbd655cf0	-0.055996835
214	0xbd823836	-0.06358378
215	0x3bf83e8d	0.007575816
216	0x3e081458	0.1328901
217	0xbe018e31	-0.12651898
218	0xbe4773a6	-0.1947771
219	0xbdac9c86	-0.08428292
220	0x3cb64b31	0.022252651
221	0xbd3af50b	-0.045643847
222	0x3da632fc	0.08115193
223	0x3da97604	0.08274463
224	0x3d5b09e9	0.053476248
225	0x3e25e9e0	0.16202497
226	0xbeb8e9fa	-0.3611601
227	0x3e4ed329	0.20197739
228	0xba8339fe	-0.001001179
229	0x3dea1efa	0.114316896
230	0xbd8ddb43	-0.069265865
231	0x3e03a5d5	0.12856229
232	0xbdcbad09	-0.09945113
233	0xbd24a834	-0.040199474
234	0xbe156024	-0.14587456
235	0x3cf5ddac	0.030012928
236	0x3d898ec3	0.06716683
237	0x3c29e0dd	0.010368553
238	0xbd72f602	-0.059316643
239	0xbe0438be	-0.1291227
240	0xbc0afc3c	-0.008482989
241	0xbc770447	-0.015076703
242	0xbd8ac179	-0.06775183
243	0xbd2d1ead	-0.042265583
244	0x3da8c728	0.08241111
245	0x3c27c39e	0.01023951
246	0xbaf19c50	-0.0018433426
247	0x3c568a48	0.013094492
248	0xbdd05850	-0.10173094
249	0x3e00506b	0.12530677
250	0xbe681e0f	-0.22667716
251	0x3dfc70cd	0.123262025
252	0x3dd43def	0.103633754
253	0xbe26eff6	-0.16302475
254	0xbdb0e54b	-0.08637484
255	0xbe114497	-0.14186321

layer1.bias f4 [64]
0	0x3e0a02d2	0.13477638
1	0x3db4075c	0.08790466
2	0x3d665114	0.056229666
3	0x3d101e25	0.035184998
4	0xbdb3a245	-0.08771185
5	0x3dfdb597	0.12388151
6	0x3db23561	0.087015875
7	0x3dbaa054	0.091126114
8	0x3e137553	0.14400224
9	0x3e65c8c0	0.22439861
10	0xbd9a5ee5	-0.07537631
11	0xbc8677c8	-0.016414538
12	0xbd3f6d87	-0.046735313
13	0xbcd57e51	-0.026061209
14	0x3d1a8c18	0.03773126
15	0x3e00ce29	0.12578644
16	0xbdad7f9f	-0.084716074
17	0x3cf5cff8	0.030006394
18	0x3da2df27	0.07952719
19	0xbc32d3af	-0.010914727
20	0x3de420d6	0.111390755
21	0x3d56e11f	0.052460786
22	0x3dd2ecb9	0.102990575
23	0x3ea1d3e2	0.31606966
24	0x3e13a703	0.14419179
25	0x3ce9f178	0.028557524
26	0x3da7e59c	0.081980914
27	0xbc22034e	-0.009888483
28	0x3e2a7e3d	0.16649719
29	0x3d008736	0.031378947
30	0xbd70ac0b	-0.058757823
31	0x3e1bc90d	0.15213414
32	0xb9169f8e	-0.00014364553
33	0x3e0f6026	0.14001521
34	0xbcce07d4	-0.025150217
35	0xbd36ce9c	-0.04463063
36	0x3d48447f	0.048893448
37	0x3c8515a6	0.016245674
38	0x3d6fa5e9	0.058507834
39	0x3d56e768	0.05246678
40	0x3e0de56d	0.1385705
41	0x3dd50bba	0.10402627
42	0x3e0e2d6c	0.13884515
43	0x3e29bb50	0.1657536
44	0xbc058997	-0.00815048
45	0x3dd4126b	0.103550754
46	0x3dac7f5c	0.084227294
47	0x3e164304	0.14674002
48	0x3dbb3492	0.09140886
49	0x3da3769e	0.07981609
50	0x3d25e6a7	0.04050317
51	0x3dc3f2dd	0.09567807
52	0xbbd8513a	-0.00660148
53	0x3dea7a54	0.114491135
54	0x3d19bab4	0.03753157
55	0x3da8b7ba	0.08238168
56	0xbe360d87	-0.17778598
57	0x3dd8bfeb	0.105834804
58	0xbaf4d495	-0.0018679077
59	0x3d780058	0.060547203
60	0x3df586f7	0.11988633
61	0xbd1fb676	-0.038992368
62	0x3e06a40e	0.1314852
63	0x3dcd7b91	0.10033334

layer2.weight f4 [8, 64]
0	0x3e472ad4	0.19449931
1	0xbe0c1a65	-0.13681944
2	0x3e953547	0.2914221
3	0xbe22cd94	-0.15898734
4	0x3d3b5dc7	0.04574373
5	0x3d4fa91a	0.050698377
6	0xbe0f017d	-0.13965411
7	0xbe7b4423	-0.24537711
8	0xbd995df3	-0.074886225
9	0xbeb91084	-0.36145413
10	0x3f0008a1	0.50013167
11	0x3cb21c13	0.021741902
12	0xba47c8dc	-0.0007621178
13	0x3ea4a393	0.32156047
14	0x3d1d43ae	0.038394623
15	0x3e9ad2d3	0.3023897
16	0x3dde55b6	0.10856192
17	0x3e3cc624	0.1843496
18	0x3e1fe524	0.15614754
19	0xbe6de44a	-0.23231617
20	0x3df9d80e	0.12199412
21	0xbea9ff92	-0.33202797
22	0xbd6b6fa1	-0.057479504
23	0x3f11a7e6	0.5689682
24	0x3d10e4d2	0.03537447
25	0xbf020a51	-0.5079699
26	0xbd113041	-0.03544641
27	0xbe5f9d7f	-0.21837424
28	0xbe2d29e4	-0.16910511
29	0x3df4ea99	0.119588085
30	0x3e29dcf0	0.16588187
31	0xbdbd5a41	-0.0924573
32	0xbe9a4de5	-0.30137554
33	0x3dd58231	0.10425223
34	0xbc9117e4	-0.017711587
35	0x3eb035ce	0.3441605
36	0x3dd81a44	0.10551885
37	0x3f081b62	0.5316678
38	0x3e2983df	0.16554211
39	0xbee7f17b	-0.45301422
40	0xbd328cbf	-0.043591257
41	0x3b9d11dd	0.0047933892
42	0xbe0e391e	-0.13888976
43	0x3ef87908	0.4852984
44	0xbe94667b	-0.28984436
45	0xbe38198c	-0.17978495
46	0xbe9abab8	-0.3022058
47	0x3e6689e7	0.22513543
48	0x3e63fe0f	0.22264884
49	0x3dfbcc7d	0.122948624
50	0xbd4299dc	-0.047510013
51	0x3e440c2f	0.19145273
52	0xbe8b4c9b	-0.27206883
53	0xbe901fb9	-0.28149202
54	0xbe15ad9f	-0.14617012
55	0x3ea38284	0.31935513
56	0x3e0c49be	0.13700005
57	0xbd130361	-0.035891894
58	0x3e16a62a	0.14711824
59	0x3c88fe9c	0.01672297
60	0xbd72697f	-0.05918264
61	0x3e770be1	0.24125625
62	0x3f0e590c	0.55604625
63	0x3e06fdbb	0.13182728
64	0x3d2f2197	0.042756643
65	0x3e2591fb	0.16168968
66	0xbe422865	-0.18960722
67	0x3e1c2614	0.152489
68	0xbe764290	-0.24048829
69	0x3d935b2c	0.07195124
70	0x3df39562	0.11893727
71	0x3dac7824	0.084213525
72	0x3e07353c	0.13203901
73	0x3ec72d3d	0.38901702
74	0xbf049c95	-0.51801425
75	0xbe06137b	-0.13093369
76	0xbe155f5f	-0.14587162
77	0xbe77d333	-0.2420166
78	0x3e4f5ccd	0.20250244
79	0x3d80cf55	0.062895454
80	0xbe48c50e	-0.1960642
81	0xbe5d979a	-0.21639863
82	0xb95895e1	-0.000206552
83	0x3dec5713	0.115400456
84	0xbe248c68	-0.16069186
85	0xbd9565d7	-0.07294815
86	0x3e3b887d	0.18313785
87	0xbefeef40	-0.49791908
88	0xbe1e9bc8	-0.15489113
89	0xbe65ebb4	-0.22453195
90	0xbe263cd5	-0.16234143
91	0x3e07501a	0.1321415
92	0x3e114a57	0.14188515
93	0xbe749890	-0.23886323
94	0xbe0c89db	-0.13724463
95	0x3e3aea03	0.18253331
96	0x3cf21929	0.029553013
97	0xbe41262f	-0.18862222
98	0xbe32d4fd	-0.17464061
99	0xbee91644	-0.455248
100	0x3e43b16c	0.1911065
101	0xbed97850	-0.42474604
102	0x3e4c6938	0.19962013
103	0x3ddba77c	0.107253045
104	0x3da881b7	0.08227866
105	0x3d2a01af	0.04150551
106	0x3e31c23c	0.17359251
107	0xbedce800	-0.43145752
108	0x3d872a68	0.06599885
109	0x3e36fcea	0.17869917
110	0x3db3a959	0.08772535
111	0xbe396fdd	-0.18109079
112	0x3dc004cd	0.09375916
113	0xbe4660ee	-0.19372913
114	0xbe78c9e9	-0.24295773
115	0x3d8e14bc	0.069375485
116	0x3e2555b4	0.16145974
117	0x3dc1038d	0.094245054
118	0x3df70099	0.12060661
119	0xbe9d397d	-0.30707923
120	0xbed5774a	-0.41692573
121	0xbe65398f	-0.22385238
122	0xbe466a8b	-0.1937658
123	0x3db02b42	0.08602001
124	0x3e36e671	0.17861344
125	0xbe2239cb	-0.15842359
126	0xbeb63997	-0.35590813
127	0x3df3a268	0.11896211
128	0xbe3219cf	-0.17392658
129	0xbd665a49	-0.056238446
130	0xbd95a5e5	-0.073070325
131	0x3e53cac4	0.20682818
132	0xbe4b6bb5	-0.19865306
133	0x3e1e332e	0.15449211
134	0x3e2671dd	0.16254373
135	0x3e3c3431	0.18379284
136	0x3db65b69	0.08904154
137	0x3ebf1cef	0.37326762
138	0xbeb5d273	-0.35512123
139	0xbd383de8	-0.044980913
140	0xbe478677	-0.19484888
141	0xbe7709ff	-0.24124907
142	0x3e4790e7	0.1948887
143	0x3c7e7e4d	0.015533042
144	0xbe0bf4ad	-0.13667555
145	0xbe215260	-0.1575408
146	0x3cca8209	0.024720209
147	0x3dd7f210	0.10544217
148	0xbd8d3b02	-0.068960205
149	0xbdc29f5d	-0.095030524
150	0x3d5ce99e	0.053933732
151	0xbebf4d77	-0.37363788
152	0xbe639426	-0.22224483
153	0x3d339e82	0.043852337
154	0xb93feb12	-0.0001830275
155	0x3dafae54	0.08578172
156	0x3e637455	0.22212346
157	0xbe54d4fd	-0.20784374
158	0xbe055080	-0.1301899
159	0x3e2da5fc	0.1695785
160	0x3e28023f	0.16407107
161	0xbe06c039	-0.13159265
162	0xbe49c2be	-0.19703194
163	0xbeb0c1d1	-0.3452287
164	0x3de03e85	0.10949425
165	0xbeee495d	-0.46540347
166	0x3ded648e	0.11591445
167	0x3e142002	0.14465335
168	0x3e1878bc	0.14889807
169	0x3e1f9981	0.15585901
170	0x3e4ebbf7	0.2018889
171	0xbefafab3	-0.49019393
172	0x3dcf9c72	0.101372615
173	0xbb8db75e	-0.0043248376
174	0x3e455495	0.19270547
175	0xbdf8284d	-0.12117062
176	0x3e1afec3	0.15136246
177	0xbdbef441	-0.093239315
178	0x3c8dc124	0.01730401
179	0x3db82920	0.08992219
180	0x3e109b4d	0.14121743
181	0x3e184181	0.14868738
182	0xbd2bb01c	-0.041915998
183	0xbedfa6f1	-0.43682054
184	0xbe7804e8	-0.24220622
185	0xbe49ad08	-0.19694912
186	0xbdf27f09	-0.11840636
187	0xbda95093	-0.082673214
188	0x3d00297d	0.031289566
189	0xbe9e8ca0	-0.30966663
190	0xbf0a2e48	-0.5397687
191	0x3e26c32c	0.1628539
192	0xbcee31ea	-0.029076535
193	0x3e314bb0	0.17314029
194	0xbdefaea4	-0.11703232
195	0x3d3efb33	0.04662628
196	0xbe5298f3	-0.20566158
197	0x3df6d532	0.120523825
198	0x3ca37848	0.019954816
199	0x3d969026	0.07351713
200	0x3e5eb54b	0.21748845
201	0x3ea4b2ac	0.32167566
202	0xbef1c080	-0.47217178
203	0xbe19da72	-0.15024737
204	0xbe2af875	-0.16696341
205	0xbe272369	-0.16322102
206	0x3e3cfd57	0.18456016
207	0xbcf31ef7	-0.029677851
208	0xbe05f143	-0.13080315
209	0xbe918b5b	-0.28426632
210	0x3e4178ed	0.18893786
211	0x3d068ce4	0.032849208
212	0xbdea3071	-0.11435021
213	0xbdbb06a7	-0.09132128
214	0x3d41e54f	0.047337826
215	0xbf0eadb8	-0.55733824
216	0xbe473c0a	-0.19456497
217	0xbd4ef19a	-0.050523378
218	0xbc1a72a5	-0.009426747
219	0x3e529370	0.20564055
220	0x3e6fe29a	0.23426285
221	0xbe5ce6bf	-0.21572398
222	0xbe6855f2	-0.22689036
223	0x3e2c0b59	0.16801204
224	0x3d301fb3	0.04299898
225	0xbd33b9e4	-0.04387845
226	0xbe7a3adf	-0.2443652
227	0xbeee3ec5	-0.46532264
228	0x3cc9bf5c	0.02462738
229	0xbeac2427	-0.33621332
230	0x3e04d492	0.12971714
231	0x3c7e1ceb	0.015509824
232	0x3e5aad22	0.21355107
233	0x3e0bf97a	0.13669387
234	0x3d305a44	0.043054834
235	0xbe993e5f	-0.29930398
236	0x3db77cf5	0.089593805
237	0x3de76e90	0.11300385
238	0x3e677ff1	0.226074
239	0xbe47098e	-0.19437239
240	0x3e890c60	0.26767254
241	0xbe3710f6	-0.17877564
242	0xbec72508	-0.3889544
243	0x3e2ce16f	0.16882871
244	0x3e1827db	0.14858954
245	0x3dd899ca	0.10576208
246	0x3e3c9812	0.18417385
247	0xbeb45b84	-0.3522607
248	0xbec91413	-0.39273128
249	0xbe892c28	-0.267915
250	0xbe2348ef	-0.1594579
251	0xbd00604b	-0.031341832
252	0x3d7a0c02	0.061046608
253	0xbebeaaa0	-0.37239552
254	0xbefd1b25	-0.49434772
255	0x3e1dfa12	0.15427426

layer2.bias f4 [8]
0	0x3dcd62e7	0.1002863
1	0x3db552e1	0.088536985
2	0x3e19c13c	0.1501512
3	0x3e072caf	0.13200639
4	0x3ba9306b	0.0051632426
5	0x3e3d6a12	0.18497494
6	0x3d94108a	0.07229717
7	0xbdbd5e15	-0.0924646

layer3.weight f4 [1, 8]
0	0xbe8d4a49	-0.27595738
1	0x3e97d083	0.2965127
2	0x3e7f7da4	0.24950272
3	0x3e82f038	0.25573897
4	0xbf0df087	-0.5544514
5	0xbe7874c7	-0.24263297
6	0x3ee89b5d	0.45431033
7	0x3e853b9b	0.26022038
