notebooks/model_part2.pt (torch, 30199 bytes, 5 tensors)

layer1.weight f4 [64, 100]
0.014497622 0.054040425 0.026253173 0.02351337 -0.083595686 -0.057579067 0.037459485 0.030278921
-0.007577428 0.0867681 0.01893666 -0.022377897 0.13111514 -0.0753641 -0.054824952 0.13501549
0.08320586 -0.058379654 0.11579406 -0.05763374 -0.03067609 -0.07404781 -0.04966069 -0.10134361
-0.0043804976 0.018705051 0.09821052 -0.08437713 -0.030065937 -0.0047194543 -0.04475223 0.013302576
0.17825603 -0.19423454 0.13096218 -0.04687601 -0.033578824 0.067043826 0.007834804 -0.21471295
0.12164706 0.022759499 -0.029581074 0.023638323 0.061314292 -0.081377715 -0.0016979675 0.05151924
-0.2141886 0.09913978 -0.02611222 0.05657229 -0.11457295 0.103559464 -0.025268871 0.009803375
-0.11275542 -0.07923398 -0.012844158 0.10654444 -0.031537797 -0.06731052 0.004339445 0.026595458
0.024017885 -0.058584448 -0.06403018 -0.10140149 -0.027522713 0.09480611 -0.08910889 -0.053378236
0.05156077 -0.08042933 -0.004831273 -0.017863663 -0.053422287 -0.081910245 -0.05984218 -0.084551066
0.008985094 0.0015365079 0.1821138 -0.115393884 -0.12150085 0.02404287 -0.12432597 0.06187314
0.038786583 0.0286891 0.005949156 0.021140566 0.036726072 -0.09045864 -0.066657215 0.06021055
-0.028707607 0.15963012 0.11388503 0.063314244 0.034680035 -0.12430958 -0.0536778 -0.06716665
0.07971388 -0.071053416 -0.102576606 -0.00037104334 -0.02918621 -0.107058346 -0.16655967 -0.1114874
-0.16418073 0.20174707 -0.021851517 -0.08671947 -0.07336609 0.065399 0.1011656 0.06415091
0.061126232 0.12222435 -0.008706585 0.06351583 0.0076428396 0.054548487 -0.041430794 0.067988105
-0.08813711 0.056014515 -0.10617229 -0.17467709 0.009357671 -0.0028932965 -0.1702326 -0.0055641183
-0.16224505 0.047919847 -0.0824881 0.08073304 0.14281441 -0.044535603 -0.028153056 0.041428678
-0.13984036 0.06298448 0.06558645 -0.029559683 -0.006564483 -0.09844216 0.04047684 -0.13778514
-0.08182975 -0.08433102 -0.109433986 0.02146043 0.12809406 0.07722227 0.12386619 -0.05236476
0.13382491 0.07573422 -0.023856223 -0.047416907 -0.109495245 0.0196172 -0.16048919 0.046009827
-0.12252021 0.07515886 0.050466716 -0.108639024 -0.02381096 -0.10847124 -0.10997348 -0.07821278
-0.19768578 0.1741105 0.097876415 0.1953703 -0.13751781 0.0353013 -0.024333965 0.016505789
-0.054206703 -0.056347124 -0.0532615 -0.018991413 0.074817054 -0.07764523 -0.038779818 0.08626851
0.0864429 0.087228835 -0.0067675873 0.04954331 0.05856516 -0.1663053 0.0012807332 0.044096395
0.14356704 0.072071396 -0.27104282 -0.11486564 0.05996948 -0.15052812 0.17326415 -0.101350695
-0.21943547 0.004930614 0.02812258 -0.054122157 0.14605443 0.116983645 -0.092403136 -0.21161652
0.065186486 -0.113268964 -0.41655678 0.1770663 -0.0955882 -0.160299 -0.20253453 0.22086784
0.087090686 -0.36766297 -0.091017894 -0.046712823 0.17174172 -0.11389377 -0.03719724 0.08901858
0.1521188 0.01155836 0.45521176 -0.17046887 0.29533982 0.0043540346 -0.024851097 -0.15126874
-0.3129439 0.039080583 -0.13586532 0.12432458 -0.106722035 0.003141253 -0.1597223 -0.0033490025
-0.4240272 0.17717212 0.15733537 -0.11126376 -0.06535177 -0.052631706 -0.12605514 0.12250025
00000000: 6f87 6d3c 7e59 5d3d e510 d73c 1c9f c03c
00000010: 3734 abbd 07d8 6bbd 1e6f 193d 800b f83c
00000020: 134c f8bb 79b3 b13d 0e21 9b3c da51 b7bc
00000030: 0c43 063e 7e58 9abd 2190 60bd 8041 0a3e
00000040: d567 aa3d 811f 6fbd 7025 ed3d 5b11 6cbd
00000050: 6c4c fbbc 61a6 97bd 0269 4bbd 3d8d cfbd
00000060: 478a 8fbb 563b 993c 9922 c93d ebcd acbd
00000070: d74c f6bc a7a5 9abb 1d4e 37bd 0cf3 593c
00000080: c088 363e 6be5 46be f31a 063e 0f01 40bd
00000090: f389 09bd 464e 893d 8d5d 003c b6dd 5bbe
000000a0: 1822 f93d 2172 ba3c 0254 f2bc 28a5 c13c
000000b0: b224 7b3d 5ca9 a6bd 568e deba d705 533d
000000c0: 4254 5bbe cc09 cb3d 4be9 d5bc 58b8 673d
000000d0: 39a5 eabd fc16 d43d aa00 cfbc 569e 203c
000000e0: 50ec e6bd 6d45 a2bd 4e70 52bc f933 da3d
000000f0: c72d 01bd 19da 89bd e731 8e3b b8de d93c
00000100: 28c1 c43c 3ff6 6fbd 4122 83bd 96ab cfbd
00000110: 5077 e1bc b529 c23d b97e b6bd 23a3 5abd
00000120: 6331 533d 22b8 a4bd a84f 9ebb d156 92bc
00000130: 54d1 5abd 8fc0 a7bd 131d 75bd 1c29 adbd
00000140: 3736 133c a664 c93a 0a7c 3a3e a153 ecbd
00000150: 70d5 f8bd 8ef5 c43c 9d9e febd b16e 7d3d
00000160: aede 1e3d 6705 eb3c 23f1 c23b fb2e ad3c
00000170: 146e 163d 6142 b9bd 9483 88bd 569f 763d
00000180: 372c ebbc 1476 233e 8e3c e93d e6aa 813d
00000190: a70c 0e3d 0596 febd 41dd 5bbd ab8e 89bd
000001a0: 0841 a33d 7484 91bd af13 d2bd 9888 c2b9
000001b0: eb17 efbc 6841 dbbd 9e8e 2abe 8253 e4bd
000001c0: fe1e 28be c996 4e3e f401 b3bc fa99 b1bd
000001d0: f640 96bd e9ef 853d e92f cf3d 8d61 833d
000001e0: 805f 7a3d c350 fa3d 10a6 0ebc 9614 823d
000001f0: c970 fa3b 3c6e 5f3d 56b3 29bd 593d 8b3d
00000200: 3b81 b4bd 7a6f 653d dc70 d9bd 8dde 32be
00000210: eb50 193c 769d 3dbb 7451 2ebe 3553 b6bb
00000220: 9123 26be 9a47 443d 85ef a8bd 5d57 a53d
00000230: f13d 123e f76a 36bd 3da1 e6bc 1eb1 293d
00000240: 5032 0fbe 02fe 803d 3052 863d 2627 f2bc
00000250: e01a d7bb 0b9c c9bd 0bcb 253d 8c17 0dbe
00000260: 5b96 a7bd beb5 acbd ed1e e0bd c9cd af3c
00000270: 172b 033e b626 9e3d 8fad fd3d 6e7c 56bd
00000280: 6609 093e 8b1a 9b3d 206e c3bc 3b38 42bd
00000290: 0b3f e0bd 40b4 a03c 4757 24be cd74 3c3d
000002a0: e0eb fabd e3ec 993d 30b6 4e3d 237e debd
000002b0: 340f c3bc 2b26 debd c739 e1bd 062e a0bd
000002c0: 246e 4abe 064a 323e 6e73 c83d 270f 483e
000002d0: 78d1 0cbe 1998 103d 0658 c7bc 2637 873c
000002e0: d907 5ebd 3ecc 66bd bb28 5abd e193 9bbc
000002f0: af39 993d 7604 9fbd 96d7 1ebd 8bad b03d
00000300: fa08 b13d 08a5 b23d a3c2 ddbb eded 4a3d
00000310: 05e2 6f3d f04b 2abe 46de a73a 6c9e 343d
00000320: 3d03 133e 2b9a 933d 20c6 8abe ad3e ebbd
00000330: 8fa2 753d 0b24 1abe 286c 313e f490 cfbd
00000340: b1b3 60be fd90 a13b 5361 e63c 32af 5dbd
00000350: 4b8f 153e 1f95 ef3d db3d bdbd 00b2 58be
00000360: 7e80 853d 8ff9 e7bd ee46 d5be de50 353e
00000370: bfc3 c3bd 6c25 24be 3665 4fbe 2e2b 623e
00000380: 9a5c b23d 523e bcbe 9767 babd f255 3fbd
00000390: 10dd 2f3e 2341 e9bd 225c 18bd 604f b63d
000003a0: 08c5 1b3e 475f 3d3c 8411 e93e 648f 2ebe
000003b0: c836 973e 4aac 8e3b 8794 cbbc 31e6 1abe
000003c0: 2f3a a0be f612 203d 4720 0bbe e39d fe3d
000003d0: 1591 dabd 7bdd 4d3b 3e8e 23be f07a 5bbb
000003e0: 181a d9be 9c6c 353e 861c 213e 41de e3bd
000003f0: 26d7 85bd 5894 57bd 9914 01be 69e1 fa3d

layer1.bias f4 [64]
0.0007577734 -0.019950654 0.18424918 0.032604314 0.016816989 0.057035457 0.16022593 -0.028849304
0.062273875 0.10142928 -0.10481949 0.15557003 0.3144147 -0.09450109 0.0482226 0.012770113
0.09748619 -0.11280404 0.13061039 -0.08262541 0.17738043 0.07961406 -0.03752511 0.096880496
-0.05677302 0.11013942 0.121331625 0.033040114 0.10284371 0.121754095 0.11440814 0.15413961
0.019052438 0.08556675 -0.032618582 -0.020836387 -0.033087354 0.1529129 -0.013762265 0.005121495
-0.062156286 0.1690203 0.056634754 -0.09094542 0.09276285 0.046854395 -0.06690695 -0.056587853
0.018949008 0.03140633 0.091923594 -0.028858839 -0.07018555 0.02646416 -0.042027496 0.11730925
-0.016118756 0.068788014 0.07586811 0.16280508 0.121650964 -0.018177826 -0.0039728037 -0.025832329
00000000: 50a5 463a 8e6f a3bc d1ab 3c3e 1a8c 053d
00000010: c8c3 893c 039e 693d 4412 243e 6055 ecbc
00000020: e412 7f3d 28ba cf3d 9aab d6bd c04d 1f3e
00000030: f7fa a03e ca89 c1bd 1085 453d bc39 513c
00000040: d7a6 c73d ce05 e7bd bbbe 053e 8337 a9bd
00000050: 37a3 353e b20c a33d eeb3 19bd 4869 c63d
00000060: d48a 68bd c790 e13d b77c f83d 1255 073d
00000070: b99f d23d 365a f93d d14e ea3d c6d6 1d3e
00000080: dc13 9c3c 9f3d af3d 109b 05bd 12b1 aabc
00000090: 9b86 07bd 3395 1c3e 207b 61bc 37d2 a73b
000000a0: 9797 7ebd a813 2d3e d8f9 673d 9841 babd
000000b0: 73fa bd3d 65ea 3f3d 8306 89bd aac8 67bd
000000c0: f33a 9b3c eda3 003d 7042 bc3d 5f69 ecbc
000000d0: 71bd 8fbd 5ecb d83c 0625 2cbd d53f f03d
000000e0: 7b0b 84bc bbe0 8c3d bd60 9b3d 60b6 263e
000000f0: 2424 f93d aae9 94bc 4b2e 82bb 529e d3bc

layer2.weight f4 [8, 64]
0.0034172055 0.18763219 -0.41801527 -0.18411376 -0.267957 0.1383396 0.062161986 0.09547491
0.19590338 -0.012367336 -0.24334513 0.18050806 -0.5777373 -0.25702384 -0.12010843 -0.23312867
0.15782773 -0.23083805 0.10172059 -0.071478374 0.07764291 -0.24696302 -0.07232656 0.15111537
0.042297605 0.19536823 -0.051751748 0.09328394 -0.2673429 0.3522761 0.31541184 0.012650527
-0.1952927 0.14881554 0.10003637 -0.29405186 0.03446564 -0.45403555 -0.18437709 -0.0781773
-0.24940096 0.08653002 -0.119568475 0.022592653 -0.1797239 0.18701689 -0.5158388 0.17668536
-0.1498703 -0.15379152 0.09025157 -0.09678931 -0.23739748 -0.08388856 -0.007386863 0.2072911
0.06387231 -0.107864074 -0.2764716 0.12006748 -0.08059029 0.18442161 0.03754192 -0.26892605
0.16768079 -0.23596069 0.026584744 0.18065746 0.12539424 -0.102890305 0.13775359 -0.08758603
-0.16336176 0.033235375 0.12666258 -0.008666874 0.24976356 0.03797175 0.24936518 0.15282476
0.20285866 0.0787956 -0.20096187 0.013590856 0.12729216 0.12150434 0.17867075 0.17310524
-0.16287169 -0.1906597 0.15317321 -0.22124101 0.049613632 0.16106461 -0.4788909 0.12266092
-0.028840961 -0.00081597466 -0.1606841 0.08167633 -0.14000024 0.29495257 0.19568785 0.008256578
0.16086797 0.07884437 0.033980045 -0.17738846 0.23996261 -0.15894765 0.30720568 -0.15050274
0.02754368 0.1517316 -0.18423802 0.10644241 0.04464452 0.15298416 0.17020658 -0.18379475
-0.12420462 0.112711474 0.1002965 -0.08822825 0.11687812 -0.13599482 -0.08284387 0.010964642
-0.018998316 -0.19250834 0.20371968 0.08383743 0.18049605 0.045573674 0.019547636 -0.2714549
-0.30885285 -0.3381546 0.025596904 0.13608438 0.41056347 0.18537353 0.2439107 0.18218699
0.10462871 0.10992002 -0.23926201 0.048688363 0.15690881 0.2635915 0.16344532 0.21179734
-0.05934366 -0.1301775 -0.006362467 -0.0008616206 0.25753075 0.10874185 -0.5343617 0.19946735
0.14716806 0.052680314 -0.13672338 0.24385454 -0.3671595 0.4843607 0.18940325 0.10820549
0.19699544 0.018433576 0.14716099 -0.090510644 0.12858231 -0.17652443 0.4419429 -0.100152865
0.12536205 0.005608934 -0.16864654 0.049543366 0.16705203 0.13450295 0.0564352 -0.054354593
-0.05165098 0.022590525 0.29560593 -0.17248693 0.14887819 -0.050362024 -0.09291068 0.13031954
-0.06439923 0.110232845 -0.29767898 -0.20348157 -0.05223798 0.12928362 0.10860202 0.08095183
0.23406103 0.18436232 -0.21423438 0.20734376 -0.59376615 -0.26231393 -0.26464203 -0.21954027
0.25440258 -0.14134246 0.020937495 -0.20454372 0.11098176 -0.16818011 -0.2084097 0.1682076
-0.024999283 0.16205645 0.14074054 0.15040882 -0.15817001 0.26297367 0.33430257 -0.012320517
-0.362095 0.18164001 0.16595922 -0.32625362 0.11256186 -0.4016778 -0.28849024 -0.11279816
-0.23493455 0.101015426 -0.44854674 0.06313834 -0.21416499 0.14415713 -0.6015024 -0.051369447
-0.19998448 -0.08318747 0.027703423 -0.10076552 -0.4502322 -0.03220061 -0.120233536 0.040044267
0.08582724 -0.23426622 -0.3010392 0.08495542 -0.12203448 0.12973928 0.010573001 -0.30078584
00000000: 32f3 5f3b a722 403e 1906 d6be 5188 3cbe
00000010: a931 89be e5a8 0d3e 919d 7e3d 5a88 c33d
00000020: e59a 483e 5ea0 4abc 772f 79be 1bd7 383e
00000030: 97e6 13bf a198 83be 69fb f5bd 48b9 6ebe
00000040: 989d 213e cf60 6cbe e252 d03d 4163 92bd
00000050: 3f03 9f3d e0e3 7cbe f31f 94bd fdbd 1a3e
00000060: 4140 2d3d 9c0e 483e a4f9 53bd a60b bf3d
00000070: 2be1 88be 885d b43e a97d a13e 2844 4f3c
00000080: cffa 47be 1a63 183e dedf cc3d f78d 96be
00000090: d82b 0d3d 5977 e8be 59cd 3cbe 6c1b a0bd
000000a0: f762 7fbe a736 b13d 51e0 f4bd 3a14 b93c
000000b0: 8b09 38be 5b81 3f3e 030e 04bf 02ed 343e
000000c0: 9a77 19be 867b 1dbe d1d5 b83d 7939 c6bd
000000d0: 5318 73be c4cd abbd 800d f2bb 1e44 543e
000000e0: 7ccf 823d d7e7 dcbd b08d 8dbe f0e5 f53d
000000f0: 860c a5bd 05d9 3c3e 8ec5 193d adb0 89be
00000100: 83b4 2b3e ae9f 71be 40c8 d93c 45fe 383e
00000110: 5967 003e 27b8 d2bd 470f 0d3e 4e60 b3bd
00000120: 4e48 27be d121 083d d6b3 013e 81ff 0dbc
00000130: 05c2 7f3e 4488 1b3d 9659 7f3e 187e 1c3e
00000140: 2eba 4f3e 965f a13d f3c8 4dbe 2fac 5e3c
00000150: e058 023e 44d7 f83d 77f5 363e 8042 313e
00000160: d6c7 26be 4c3c 43be 70d9 1c3e 018d 62be
00000170: aa37 4b3d 1fee 243e 3031 f5be a635 fb3d
00000180: e143 ecbc 22e7 55ba 5f8a 24be eb45 a73d
00000190: 395c 0fbe 0604 973e 6562 483e 9946 073c
000001a0: 93ba 243e 2879 a13d a92e 0b3d 52a5 35be
000001b0: c2b8 753e 2cc3 22be 104a 9d3e 641d 1abe
000001c0: 49a3 e13c 875f 1b3e e4a8 3cbe 7afe d93d
000001d0: 2cdd 363d e1a7 1c3e a24a 2e3e b134 3cbe
000001e0: fe5e febd 46d5 e63d 4068 cd3d 03b1 b4bd
000001f0: cc5d ef3d 3a42 0bbe 0caa a9bd 0ba5 333c
00000200: 5ba2 9bbc e820 45be e49b 503e f5b2 ab3d
00000210: f5d3 383e 76ab 3a3d 5d22 a03c 23fc 8abe
00000220: f621 9ebe 9a22 adbe 99b0 d13c b459 0b3e
00000230: 6035 d23e 8fd2 3d3e bac3 793e 3a8f 3a3e
00000240: 9447 d63d bf1d e13d 1a01 75be 736d 473d
00000250: b4ac 203e 77f5 863e 365e 273e 67e1 583e
00000260: 5612 73bd 404d 05be 3e7c d0bb 61de 61ba
00000270: 12db 833e 0cb4 de3d eecb 08bf 2b41 4c3e
00000280: 39b3 163e 50c7 573d 3701 0cbe 01b5 793e
00000290: 54fc bbbe 20fe f73e edf2 413e d79a dd3d
000002a0: 2cb9 493e 0302 973c 5fb1 163e a55d b9bd
000002b0: 15ab 033e d2c2 34be 5746 e23e f21c cdbd
000002c0: e95e 003e 26cb b73b aeb1 2cbe fced 4a3d
000002d0: b00f 2b3e 24bb 093e 9928 673d eca2 5ebd
000002e0: fa8f 53bd c40f b93c a959 973e 6aa0 30be
000002f0: 8673 183e 6948 4ebd f447 bebd 7c72 053e
00000300: bee3 83bd c2c1 e13d 6169 98be 795d 50be
00000310: 7ef7 55bd ed62 043e bc6a de3d 13ca a53d
00000320: b2ad 6f3e 7ac9 3c3e 4260 5bbe ec51 543e
00000330: 0f01 18bf 034e 86be 297f 87be 2acf 60be
00000340: 0e41 823e 14bc 10be 1c85 ab3c e973 51be
00000350: 684a e33d 6837 2cbe 5a69 55be 9d3e 2c3e
00000360: 4ccb ccbc 20f2 253e 4a1e 103e c504 1a3e
00000370: 52f7 21be 7ca4 863e b529 ab3e fedb 49bc
00000380: 8464 b9be d7ff 393e 37f1 293e b70a a7be
00000390: d586 e63d b6a8 cdbe feb4 93be b902 e7bd
000003a0: af92 70be 2de1 ce3d eba7 e5be ad4e 813d
000003b0: 114e 5bbe ed9d 133e 10fc 19bf c568 52bd
000003c0: bbc8 4cbe 315e aabd 4af2 e23c 275e cebd
000003d0: d684 e6be c9e4 03bd 003d f6bd 7505 243d
000003e0: 31c6 af3d 7ce3 6fbe cf21 9abe 1bfd ad3d
000003f0: 37ed f9bd 60da 043e 613a 2d3c 9a00 9abe

layer2.bias f4 [8]
0.0613649 0.07094239 0.15945011 -0.055894822 0.1438227 0.1097216 0.06157544 0.14508921
00000000: c359 7b3d 3e4a 913d e446 233e f8f1 64bd
00000010: 4246 133e b8b5 e03d 8736 7c3d 4492 143e

layer3.weight f4 [1, 8]
0.4041822 -0.36407307 -0.26507872 0.550499 0.44695148 -0.30886585 -0.30636537 -0.23844019
00000000: f8f0 ce3e c967 babe 66b8 87be 81ed 0c3f
00000010: d3d6 e43e aa23 9ebe ecdb 9cbe aa29 74be
