checkpoints/binary_classifier.pth (torch, 30247 bytes, 5 tensors)

layer1.weight f4 [64, 100]
0.13591725 0.07780613 0.075371064 0.016707491 0.079584874 0.08082906 0.08328938 0.049761865
-0.12325473 0.083286814 -0.02121436 -0.19011612 0.007106344 -0.011909812 -0.03924968 0.14187142
0.06554738 -0.11045401 -0.14002168 -0.09915226 0.104651526 0.07703564 0.012096767 0.11125902
0.1476529 -0.13285075 -0.040516593 -0.11221482 -0.121838175 0.09375949 0.007081559 0.12158574
0.124401696 0.07053281 -0.022415405 -0.046876896 -0.084055394 0.15540652 -0.008660066 -0.13941266
0.02771679 0.07083583 -0.0059475447 0.11953684 0.012473478 0.023335703 0.0017935475 0.086976446
-0.07865176 0.12773243 0.041598 -0.08041442 0.14073692 0.022410395 0.0787849 0.18353294
0.056505717 0.04536327 -0.19799675 0.109114625 -0.10707698 -0.12415092 0.103398554 -0.12999164
-0.032762475 -0.015694972 -0.11544339 -0.0659746 0.08751457 -0.0617153 -0.0450497 0.020710047
-0.028908234 -0.032386348 -0.05171429 0.009549478 0.018983675 0.037316907 0.025321111 -0.15181741
0.029489785 0.081568554 0.09527952 -0.033210143 -0.14112335 -0.0030724122 0.08535283 0.13510056
-0.04663801 0.11378897 0.021694556 -0.14474744 -0.018742578 0.16960984 0.1550453 -0.013617351
-0.15561175 0.019933423 -0.0111479545 -0.042703606 0.14432003 0.1259341 -0.032313198 -0.034976766
0.15512912 0.061905097 -0.011637701 0.04841071 -0.070247844 0.12087566 -0.16697574 0.03520423
0.012196565 0.12073061 -0.066239335 0.10828689 0.15442924 -0.06630177 0.029767254 0.06554017
0.07895733 0.11040897 -0.00691802 -0.017801937 0.12936 0.023724245 -0.09132465 -0.006980671
-0.010327458 0.19311798 -0.06405422 0.029931027 0.020564541 0.09532082 -0.10243997 -0.01736358
-0.03934319 0.038204204 0.023856249 -0.109128825 0.10296734 0.053219456 -0.01959099 0.017428195
-0.024112856 0.15518579 -0.093701266 0.030398382 -0.08783446 0.14189741 0.049933694 -0.09360191
0.0031807537 0.08265219 -0.14932358 0.1577371 -0.059977703 -0.10454531 -0.16044512 -0.036038026
-0.14496933 -0.042605076 0.048431844 -0.11414846 0.05656894 -0.114005156 0.042230234 -0.11977923
0.13902904 -0.0491926 -0.114971064 0.03936016 -0.11079003 0.03994225 0.044907164 -0.052566025
-0.092833854 0.0303099 0.0956791 -0.030748177 0.16684264 0.004227826 0.123609476 0.060330734
-0.0729084 0.082707025 0.015590802 -0.02381629 0.045622595 0.04330833 -0.08406773 -0.08821837
-0.024952095 0.04628932 0.0317235 0.0717379 0.026732706 0.124200165 0.036723692 -0.17856462
-0.19640495 -0.07446955 0.10447657 0.1440795 0.023861721 -0.0132842725 -0.03460161 0.1503082
0.08925527 -0.14549449 0.02598014 -0.019189196 -0.1491439 -0.016348936 0.06994241 -0.15530941
-0.16122535 -0.075715065 0.1161438 0.065769345 0.056921225 0.02593145 0.012533686 -0.013298336
-0.18119928 0.004397782 0.044254974 -0.111909665 0.05145441 -0.12921207 0.026589194 0.026273087
0.0179092 -0.052284837 0.1401121 0.05126366 0.105452165 -0.004769347 0.05234562 0.002801593
0.05175574 -0.04881359 -0.17655577 -0.13683353 -0.1331889 -0.22557312 -0.107848145 0.0005686158
0.13622923 -0.1339601 0.011984456 -0.08760133 -0.019080456 -0.044612452 0.03947249 -0.089374006
00000000: e42d 0b3e d258 9f3d 255c 9a3d 26de 883c
00000010: 65fd a23d b589 a53d 9f93 aa3d 19d3 4b3d
00000020: fa6c fcbd 4792 aa3d bdc9 adbc cdad 42be
00000030: 56dc e83b 5f21 43bc 46c4 20bd be46 113e
00000040: b43d 863d b635 e2bd d861 0fbe 5710 cbbd
00000050: 8a53 d63d ddc4 9d3d 8531 463c c5db e33d
00000060: 5232 173e 070a 08be baf4 25bd e2d0 e5bd
00000070: 4b86 f9bd fa04 c03d 6c0c e83b f201 f93d
00000080: 51c6 fe3d 8273 903d 83a0 b7bc fd01 40bd
00000090: 3c25 acbd e322 1f3e f3e2 0dbc 31c2 0ebe
000000a0: 520e e33c 6012 913d 9fe3 c2bb bbcf f43d
000000b0: 8f5d 4c3c 842a bf3c 7815 eb3a b520 b23d
000000c0: 2d14 a1bd 4acc 023e aa62 2a3d 51b0 a4bd
000000d0: 571d 103e 0196 b73c fa59 a13d 0ff0 3b3e
000000e0: 8a72 673d d6ce 393d a9bf 4abe 7d77 df3d
000000f0: 2d4b dbbd d642 febd 9fc2 d33d 871c 05be
00000100: f231 06bd be92 80bc 966d ecbd b11d 87bd
00000110: d73a b33d 2fc9 7cbd 0986 38bd 1ea8 a93c
00000120: f6d0 ecbc 8ca7 04bd 5dd2 53bd 6a75 1c3c
00000130: a783 9b3c 9dd9 183d 386e cf3c 0676 1bbe
00000140: 9094 f13c 6a0d a73d e921 c33d 5c07 08bd
00000150: a482 10be 865a 49bb 77cd ae3d cd57 0a3e
00000160: 7f07 3fbd 310a e93d c8b8 b13c ac38 14be
00000170: 098a 99bc 34ae 2d3e 32c4 1e3e 4f1b 5fbc
00000180: b058 1fbe 6b4b a33c e9a5 36bc fae9 2ebd
00000190: a1c8 133e def4 003e d85a 04bd cc43 0fbd
000001a0: 2bda 1e3e 3390 7d3d 0eac 3ebc 4f4a 463d
000001b0: 1ade 8fbd a88d f73d b0fb 2abe 5032 103d
000001c0: 1ad4 473c 9c41 f73d 7da8 87bd 84c5 dd3d
000001d0: b322 1e3e 39c9 87bd 75da f33c ed39 863d
000001e0: 61b4 a13d 191e e23d 8fb0 e2bb 5ed5 91bc
000001f0: f376 043e 5959 c23c 6b08 bbbd 1dbe e4bb
00000200: 8034 29bc b8c0 453e dc2e 83bd ea31 f53c
00000210: f876 a83c 9037 c33d 0ccc d1bd 113e 8ebc
00000220: 5326 21bd 037c 1c3d 2e6e c33c ef7e dfbd
00000230: 8ae0 d23d a5fc 593d 497d a0bc 93c5 8e3c
00000240: 5388 c5bc 06e9 1e3e 73e6 bfbd 0706 f93c
00000250: 8ee2 b3bd 8e4d 113e 4687 4c3d 5cb2 bfbd
00000260: 3174 503b 8d45 a93d 48e8 18be d685 213e
00000270: 2eab 75bd da1b d6bd ba4b 24be 9c9c 13bd
00000280: d772 14be a982 2ebd 7860 463d abc6 e9bd
00000290: d5b4 673d 897b e9bd 9cf9 2c3d d04e f5bd
000002a0: a15d 0e3e 2e7e 49bd f375 ebbd 1e38 213d
000002b0: e2e5 e2bd 7c9a 233d 93f0 373d 794f 57bd
000002c0: ad1f bebd 784c f83c 67f3 c33d 9ae3 fbbc
000002d0: ccd8 2a3e 9389 8a3b f726 fd3d 5c1d 773d
000002e0: 0051 95bd 4d62 a93d 9070 7f3c 611a c3bc
000002f0: c2de 3a3d 1364 313d b42b acbd d5ab b4bd
00000300: 5668 ccbc df99 3d3d 80f0 013d 52eb 923d
00000310: 8cfe da3c a85c fe3d 956b 163d a5d9 36be
00000320: 611e 49be 7e83 98bd d0f7 d53d 9489 133e
00000330: a879 c33c 47a6 59bc 6bba 0dbd 65ea 193e
00000340: 78cb b63d 82fc 14be 4dd4 d43c a932 9dbc
00000350: 2eb9 18be 34ee 85bc f73d 8f3d 6e09 1fbe
00000360: 4218 25be 8010 9bbd cddc ed3d 14b2 863d
00000370: 3b26 693d 316e d43c 175a 4d3c 44e1 59bc
00000380: 4e8c 39be 451b 903b b444 353d e530 e5bd
00000390: dcc1 523d 2b50 04be 95d1 d93c a83a d73c
000003a0: 51b6 923c a028 56bd 8c79 0f3e d8f9 513d
000003b0: 4ef7 d73d 2f48 9cbb 5c68 563d ee9a 373b
000003c0: d4fd 533d c2f0 47bd 09cb 34be 171e 0cbe
000003d0: ac62 08be a4fc 66be 7ddf dcbd 290f 153a
000003e0: ad7f 0b3e d62c 09be 745a 443c 5368 b3bd
000003f0: 9e4e 9cbc 8cbb 36bd e8ad 213d b809 b7bd

layer1.bias f4 [64]
-0.008899815 0.13385463 0.13524002 0.16708416 -0.00784366 0.13701673 0.04059649 0.1468606
0.08431618 -0.081340306 0.11866248 0.13440087 -0.21922609 0.09604216 0.025447646 0.047434572
0.024872491 0.041312072 -0.107146464 -0.02239165 0.07720816 0.064726114 -0.020314183 0.12686704
0.1411952 -0.0011294641 -0.0018937804 0.07737508 0.094489664 0.027950462 0.117852286 0.061174814
0.14855799 0.031081745 -0.0501711 -0.008499011 0.016196039 -0.021377608 0.04459345 0.011666468
0.09986117 -0.008662832 0.06835944 -0.01009614 0.107823655 0.086465515 0.07926589 0.03637182
0.08184327 0.0055572065 0.05465291 0.008119773 0.116895795 0.16608794 -0.052827053 0.12351679
0.14966604 0.105152495 0.09758133 -0.0072594634 0.06336068 -0.068996035 -0.1568313 0.042040315
00000000: 88d0 11bc 3011 093e 5c7c 0a3e 1c18 2b3e
00000010: b282 00bc 1d4e 0c3e 8148 263d a062 163e
00000020: f6ad ac3d bf95 a6bd 5005 f33d 62a0 093e
00000030: ce7c 60be c1b1 c43d 9577 d03c c14a 423d
00000040: 65c1 cb3c d936 293d 9b6f dbbd b26e b7bc
00000050: 501f 9e3d 208f 843d ee69 a6bc 6fe9 013e
00000060: 7995 103e 870a 94ba ba38 f8ba d376 9e3d
00000070: cc83 c13d 5ef8 e43c 8a5c f13d 7192 7a3d
00000080: 961f 183e 259f fe3c 3680 4dbd 703f 0bbc
00000090: 8ead 843c 1820 afbc 9fa7 363d b724 3f3c
000000a0: 0384 cc3d 8dee 0dbc 0900 8c3d 486a 25bc
000000b0: a6d2 dc3d d514 b13d 2856 a23d 9efa 143d
000000c0: 729d a73d 3a19 b63b bbdb 5f3d cc08 053c
000000d0: 1067 ef3d f512 2a3e 2e61 58bd 5ff6 fc3d
000000e0: 0e42 193e 315a d73d b8d8 c73d cbe0 edbb
000000f0: 3fc3 813d cb4d 8dbd 6298 20be 7732 2c3d

layer2.weight f4 [8, 64]
0.11389828 0.1978778 -0.014464141 0.033362046 0.19177848 0.11353679 0.17033146 0.111264996
0.46384004 0.07431911 -0.12758644 -0.18800502 0.29721442 -0.06421567 -0.1784016 0.1416967
0.13718198 -0.23463148 -0.16374362 -0.12828326 0.17179008 0.15146858 -0.07918371 -0.08887841
-0.17338863 0.18359792 -0.23867984 0.18764764 0.20053098 -0.39088377 0.14063907 0.2017483
-0.06270073 0.15810218 0.010568434 0.18172324 0.063424096 0.107989475 -0.14119762 -0.12492053
0.095659584 0.06475019 -0.20533429 0.087264106 0.21108326 0.15818094 0.09202722 -0.35015714
0.18617961 0.22627953 0.12240276 -0.22985357 -0.048994616 0.23273356 0.11250486 0.22615051
0.07788423 0.16724229 0.025897399 -0.11868386 -0.18031318 -0.12985289 0.13408361 -0.22912875
-0.09699818 -0.02616149 0.043178447 0.06881754 0.09327245 -0.33651647 -0.044619437 -0.12834485
-0.2221405 -0.37634188 0.11583402 0.12469739 -0.27609828 -0.24352612 0.11156394 -0.021006739
-0.118555725 0.08607401 -0.2889771 0.037461974 0.04756506 0.043384925 0.18712032 0.11706153
0.14368254 -0.12544307 -0.020973003 0.008609997 -0.07022289 -0.494173 0.13240865 0.15074712
0.14958578 0.03622681 -0.268206 -0.08339177 -0.12215763 -0.17882471 0.18389027 0.1400463
-0.30808556 -0.089016624 -0.040612634 -0.35187972 -0.15880115 -0.06310773 -0.08107603 0.10615002
-0.07994643 -0.23453681 -0.09960037 0.14109237 0.105599225 -0.30927652 -0.16581167 -0.20488878
-0.04794334 -0.043400362 0.15614924 0.14714421 0.17273548 0.101496264 -0.15015092 0.10062354
0.018177794 0.20812808 -0.13553166 -0.003931575 0.07792648 0.44305807 0.19003879 0.079102695
0.5125681 0.38054922 -0.19407162 -0.1248889 0.55654067 0.21123205 -0.22216646 0.1211095
-0.0045439154 -0.1314562 0.15287977 0.11186763 0.17697859 0.081695005 -0.05803009 -0.20805046
-0.24084534 0.11526566 -0.34364974 0.01550725 0.1986349 0.42184824 0.008773769 0.1500125
0.07241487 0.16345657 0.37434024 0.030546281 0.02063249 0.15667571 -0.19505481 -0.20187353
0.28477907 0.11024321 -0.02593798 0.4237029 0.07549067 0.18922058 0.21854298 -0.42885196
0.09954654 0.051614817 0.19384548 -0.042435974 0.045523755 0.5700667 0.2211621 0.14323576
0.1582638 0.02751996 0.11516806 -0.21021323 -0.18728566 -0.5416608 -0.008315949 -0.277896
-0.24571088 -0.112786576 0.20036638 0.08707945 -0.08199577 -0.5451109 -0.116486706 -0.06851482
-0.28263846 -0.3735293 0.18569374 0.1933109 -0.43016538 -0.23236115 -0.015646506 -0.09858979
-0.033249374 0.10617242 -0.29329553 0.050012745 0.18547942 -0.023257814 0.10813018 0.0801782
0.061707065 -0.19242096 0.17942226 -0.07084013 -0.01831535 -0.5929555 0.24200223 0.11923819
0.15339871 -0.033589564 -0.33164608 -0.04297441 -0.25653613 -0.019880773 0.09969943 0.12495436
-0.254551 -0.008711312 0.22655165 -0.16551831 -0.28289044 0.005282727 -0.14106734 0.061123796
-0.07819662 -0.15951644 -0.18116899 0.008149209 0.15869966 -0.49740273 -0.07727909 -0.054108035
-0.07229074 -0.20630968 0.0053859013 0.1619684 0.17258088 0.27677718 0.004609591 0.11691114
00000000: 8043 e93d 7aa0 4a3e 01fb 6cbc a4a6 083d
00000010: 9461 443e fa85 e83d 5f6b 2e3e e7de e33d
00000020: 717c ed3e 9e34 983d 05a6 02be 6384 40be
00000030: 7d2c 983e 8183 83bd e9ae 36be f118 113e
00000040: 6f79 0c3e 3c43 70be 68ac 27be b05c 03be
00000050: bde9 2f3e 941a 1b3e 122b a2bd e205 b6bd
00000060: ca8c 31be 1801 3c3e 7d68 74be b426 403e
00000070: fe57 4d3e eb21 c8be b003 103e 1b97 4e3e
00000080: 3e69 80bd 8ae5 213e 3a27 2d3c a815 3a3e
00000090: 7ee4 813d 9629 dd3d 1c96 10be 56d6 ffbd
000000a0: 2ce9 c33d bf9b 843d 2743 52be 86b7 b23d
000000b0: 3626 583e 2ffa 213e c478 bc3d cc47 b3be
000000c0: dea5 3e3e d2b5 673e 4cae fa3d bc5e 6bbe
000000d0: 94ae 48bd b551 6e3e f368 e63d 0094 673e
000000e0: c481 9f3d 9041 2b3e c826 d43c 8610 f3bd
000000f0: 05a4 38be 28f8 04be 374d 093e baa0 6abe
00000100: fba6 c6bd 9f50 d6bc e2db 303d 36f0 8c3d
00000110: a005 bf3d e34b acbe dfc2 36bd d56c 03be
00000120: cd78 63be e2af c0be 633a ed3d 5861 ff3d
00000130: c15c 8dbe e95e 79be a37b e43d 5316 acbc
00000140: 58cd f2bd 9247 b03d cef4 93be ba71 193d
00000150: 95d3 423d 64b4 313d 789c 3f3e f5bd ef3d
00000160: 8421 133e 2674 00be 93cf abbc f210 0d3c
00000170: 05d1 8fbd 3e04 fdbe 2296 073e 745d 1a3e
00000180: 042d 193e 9062 143d 4c52 89be 4ec9 aabd
00000190: c82d fabd d31d 37be bb4d 3c3e 4c68 0f3e
000001a0: 64bd 9dbe 594e b6bd 6f59 26bd 9429 b4be
000001b0: c59c 22be a03e 81bd 310b a6bd 2f65 d93d
000001c0: f4ba a3bd 6b2a 70be 47fb cbbd 857a 103e
000001d0: 6844 d83d 7e59 9ebe 89ca 29be 5dce 51be
000001e0: 3c60 44bd 94c4 31bd 96e5 1f3e f9ac 163e
000001f0: 92e1 303e 46dd cf3d 2ac1 19be b713 ce3d
00000200: 99e9 943c 871f 553e d0c8 0abe 71d4 80bb
00000210: eb97 9f3d 82d8 e23e 8799 423e 9800 a23d
00000220: aa37 033f 59d7 c23e b6ba 46be c0c5 ffbd
00000230: 7379 0e3f 374d 583e 9b7f 63be 4208 f83d
00000240: 20e5 94bb 749c 06be 848c 1c3e db1a e53d
00000250: e039 353e b64f a73d f6b0 6dbd 2e0b 55be
00000260: 29a0 76be 6710 ec3d dcf2 afbe 1f12 7e3c
00000270: f266 4b3e 7efc d73e dbbf 0f3c e09c 193e
00000280: 3f4e 943d 2961 273e 86a9 bf3e 323c fa3c
00000290: 7805 a93c 996f 203e 73bc 47be efb7 4ebe
000002a0: 90ce 913e 31c7 e13d e37b d4bc 96ef d83e
000002b0: da9a 9a3d 0ac3 413e bbc9 5f3e 7c92 dbbe
000002c0: 0edf cb3d 0f6a 533d 6e7f 463e 58d1 2dbd
000002d0: 1e77 3a3d e4ef 113f 5178 623e 65ac 123e
000002e0: e80f 223e 8a71 e13c 3bdd eb3d 2342 57be
000002f0: d0c7 3fbe 48aa 0abf 9e3f 08bc 6248 8ebe
00000300: a29b 7bbe a6fc e6bd d82c 4d3e b656 b23d
00000310: 66ed a7bd 638c 0bbf 9590 eebd 7f51 8cbd
00000320: fdb5 90be 3b3f bfbe 8026 3e3e 4bf3 453e
00000330: a33e dcbe 15f0 6dbe 1a2d 80bc 72e9 c9bd
00000340: 7f30 08bd ed70 d93d d52a 96be 2ada 4c3d
00000350: 51ee 3d3e 2c87 bebc 5b73 dd3d 7834 a43d
00000360: 8cc0 7c3d 000a 45be 78ba 373e a114 91bd
00000370: 130a 96bc efcb 17bf 6fcf 773e 2733 f43d
00000380: 8d14 1d3e 3695 09bd 84cd a9be ef05 30bd
00000390: b458 83be 01dd a2bc 372f cc3d 12e8 ff3d
000003a0: 8254 82be e4b9 0ebc 28fd 673e a27d 29be
000003b0: 04d7 90be ba1a ad3b f573 10be f25c 7a3d
000003c0: 8d25 a0bd 4758 23be 5d84 39be 4384 053c
000003d0: 2a82 223e 92ab febe 8044 9ebd 63a0 5dbd
000003e0: 2b0d 94bd d842 53be 377c b03b 0bdb 253e
000003f0: 0bb9 303e bdb5 8d3e 0d0c 973b 1c6f ef3d

layer2.bias f4 [8]
-0.075643726 0.040086854 0.0049603125 0.0028814198 0.12902112 -0.05123756 0.016151538 0.14338604
00000000: 19eb 9abd 1d32 243d 1e8a a23b 34d6 3c3b
00000010: 1d1e 043e 7ade 51bd 3b50 843c cad3 123e

layer3.weight f4 [1, 8]
-0.39271596 0.38616526 -0.31404835 0.30162132 0.7468828 -0.28691587 0.42088133 0.26191306
00000000: 1112 c9be 74b7 c53e f2ca a0be 1c6e 9a3e
00000010: b633 3f3f a3e6 92be c27d d73e 7819 863e
